src/gallium/targets/teflon/tests/models/vww4/vww4_128_128_INT8.tflite (tflite, 490336 bytes, 54 tensors)

Conv2D;StatefulPartitionedCall/StatefulPartitionedCall/PartitionedCall_3/PartitionedCall/Conv2D i1 [8, 3, 3, 1]
30 -9 -4 127 84 -15 59 95
-5 16 12 -21 127 122 15 74
53 -3 -43 -46 77 -127 -105 -1
-59 -60 -13 -106 -35 42 -126 -127
4 -49 -29 -16 -30 -14 9 -127
-86 18 -96 -64 -22 22 -127 -89
-87 -112 1 -57 -18 44 28 -127
-85 -88 -126 9 -52 -12 40 -32
74 114 -127 -10 43 -58 -19 33
00000000: 1ef7 fc7f 54f1 3b5f fb10 0ceb 7f7a 0f4a
00000010: 35fd d5d2 4d81 97ff c5c4 f396 dd2a 8281
00000020: 04cf e3f0 e2f2 0981 aa12 a0c0 ea16 81a7
00000030: a990 01c7 ee2c 1c81 aba8 8209 ccf4 28e0
00000040: 4a72 81f6 2bc6 ed21

Conv2D;StatefulPartitionedCall/StatefulPartitionedCall/PartitionedCall_6/PartitionedCall/Conv2D i1 [4, 1, 1, 8]
-27 -92 62 9 127 127 127 67
48 127 -51 20 -119 -99 -80 56
98 127 -83 -70 -105 -90 -95 -78
-9 -20 34 17 22 126 127 -71
00000000: e5a4 3e09 7f7f 7f43 307f cd14 899d b038
00000010: 627f adba 97a6 a1b2 f7ec 2211 167e 7fb9

Conv2D;StatefulPartitionedCall/StatefulPartitionedCall/PartitionedCall_12/PartitionedCall/Conv2D i1 [4, 1, 1, 4]
9 28 127 -122 -11 15 100 -127
-5 0 127 49 0 46 -127 118
00000000: 091c 7f86 f50f 6481 fb00 7f31 002e 8176

Conv2D;StatefulPartitionedCall/StatefulPartitionedCall/PartitionedCall_14/PartitionedCall/Conv2D i1 [8, 1, 1, 4]
30 7 127 -33 26 49 127 -1
-7 -25 -127 11 -127 -80 38 127
-111 -117 -127 112 57 127 -12 -48
95 103 127 -95 -10 -50 -127 122
00000000: 1e07 7fdf 1a31 7fff f9e7 810b 81b0 267f
00000010: 918b 8170 397f f4d0 5f67 7fa1 f6ce 817a

Conv2D;StatefulPartitionedCall/StatefulPartitionedCall/PartitionedCall_20/PartitionedCall/Conv2D i1 [12, 1, 1, 8]
72 22 -25 -127 121 81 -20 77
14 -125 -17 -121 96 76 -127 -50
93 -30 127 108 24 -77 -35 55
-23 -47 -71 -11 26 51 127 117
-24 -71 -127 118 34 39 -72 -109
53 -107 -106 -127 -96 -98 -93 80
70 79 -101 31 45 -127 94 -104
126 -22 -17 16 88 106 127 -15
29 -110 31 -84 -127 -18 100 -58
4 126 117 -101 -48 41 -110 -127
26 81 -87 29 -89 114 -127 31
34 69 -38 3 -127 125 98 -36
00000000: 4816 e781 7951 ec4d 0e83 ef87 604c 81ce
00000010: 5de2 7f6c 18b3 dd37 e9d1 b9f5 1a33 7f75
00000020: e8b9 8176 2227 b893 3595 9681 a09e a350
00000030: 464f 9b1f 2d81 5e98 7eea ef10 586a 7ff1
00000040: 1d92 1fac 81ee 64c6 047e 759b d029 9281
00000050: 1a51 a91d a772 811f 2245 da03 817d 62dc

Conv2D;StatefulPartitionedCall/StatefulPartitionedCall/PartitionedCall_22/PartitionedCall/Conv2D i1 [14, 1, 1, 12]
-109 -127 -102 101 -2 52 -118 -107
-85 -85 75 -106 -90 -79 -91 42
-80 -127 -123 -102 -87 -54 42 -92
48 69 -19 30 -64 127 114 57
121 -48 -97 30 -78 78 -117 117
-39 110 -127 105 86 98 112 102
105 111 112 -123 107 122 -125 -101
-123 127 120 -96 -23 0 41 -59
20 127 -61 -123 5 12 117 22
-85 49 -126 -127 88 -103 47 54
116 118 -112 9 -44 -127 -26 -108
5 -14 126 -110 -22 115 -30 -60
40 94 -66 43 45 -127 -3 118
0 54 14 93 -53 -32 -18 -127
92 -44 -15 -74 12 72 119 74
45 -118 106 75 -127 63 -96 -91
-67 -69 85 -78 -114 -108 -114 120
-127 -23 109 54 119 -33 -98 63
57 103 -124 125 127 46 98 127
8 -35 122 107 -48 -79 41 127
-89 -118 91 76 56 -91 -75 52
00000000: 9381 9a65 fe34 8a95 abab 4b96 a6b1 a52a
00000010: b081 859a a9ca 2aa4 3045 ed1e c07f 7239
00000020: 79d0 9f1e b24e 8b75 d96e 8169 5662 7066
00000030: 696f 7085 6b7a 839b 857f 78a0 e900 29c5
00000040: 147f c385 050c 7516 ab31 8281 5899 2f36
00000050: 7476 9009 d481 e694 05f2 7e92 ea73 e2c4
00000060: 285e be2b 2d81 fd76 0036 0e5d cbe0 ee81
00000070: 5cd4 f1b6 0c48 774a 2d8a 6a4b 813f a0a5
00000080: bdbb 55b2 8e94 8e78 81e9 6d36 77df 9e3f
00000090: 3967 847d 7f2e 627f 08dd 7a6b d0b1 297f
000000a0: a78a 5b4c 38a5 b534

Conv2D;StatefulPartitionedCall/StatefulPartitionedCall/PartitionedCall_28/PartitionedCall/Conv2D i1 [16, 1, 1, 14]
83 -116 -95 100 115 72 124 -114
26 -108 -55 127 87 119 53 -30
10 -84 -127 17 2 91 -87 51
-17 -29 -25 56 -4 -115 -13 -125
-52 127 31 -35 31 55 -71 116
52 -80 83 64 127 -65 -15 88
-76 63 -127 67 65 -52 64 -86
96 -96 18 -39 -127 25 -16 3
69 -88 -2 71 -121 15 36 -2
24 28 -117 106 111 116 -127 45
-21 107 13 -33 37 103 41 -67
114 25 3 82 29 -37 65 -127
106 31 32 94 101 -7 121 -60
-74 62 -35 66 75 -45 -127 -32
33 -6 72 120 114 -43 110 98
43 -127 43 -111 -118 -72 72 108
100 48 -114 73 -69 -92 108 -63
127 83 87 115 -14 27 -3 51
-127 -48 76 57 5 -11 8 19
73 25 85 -104 -62 -51 124 106
-65 -92 60 89 -86 103 88 -127
-118 121 102 -123 112 114 39 -100
-64 -114 108 123 19 -127 -19 -122
-114 -79 120 -41 127 -16 -26 -66
-62 102 52 105 116 68 43 103
127 -22 -28 61 -5 72 40 34
39 -12 -86 -127 -70 -57 98 111
-64 110 -63 119 -75 98 -89 46
00000000: 538c a164 7348 7c8e 1a94 c97f 5777 35e2
00000010: 0aac 8111 025b a933 efe3 e738 fc8d f383
00000020: cc7f 1fdd 1f37 b974 34b0 5340 7fbf f158
00000030: b43f 8143 41cc 40aa 60a0 12d9 8119 f003
00000040: 45a8 fe47 870f 24fe 181c 8b6a 6f74 812d
00000050: eb6b 0ddf 2567 29bd 7219 0352 1ddb 4181
00000060: 6a1f 205e 65f9 79c4 b63e dd42 4bd3 81e0
00000070: 21fa 4878 72d5 6e62 2b81 2b91 8ab8 486c
00000080: 6430 8e49 bba4 6cc1 7f53 5773 f21b fd33
00000090: 81d0 4c39 05f5 0813 4919 5598 c2cd 7c6a
000000a0: bfa4 3c59 aa67 5881 8a79 6685 7072 279c
000000b0: c08e 6c7b 1381 ed86 8eb1 78d7 7ff0 e6be
000000c0: c266 3469 7444 2b67 7fea e43d fb48 2822
000000d0: 27f4 aa81 bac7 626f c06e c177 b562 a72e

Conv2D;StatefulPartitionedCall/StatefulPartitionedCall/PartitionedCall_33/PartitionedCall/Conv2D i1 [28, 1, 1, 16]
-43 -108 -64 103 11 -21 125 71
-42 -123 47 127 52 -59 64 -49
-31 -10 -48 -81 35 -93 -99 -73
127 45 34 66 -53 -50 -59 -113
-30 108 94 111 -67 61 21 77
-39 -63 -116 -121 -4 -9 -18 127
96 13 -63 -36 -7 -120 90 52
-121 -80 -105 -127 -39 102 74 -1
-51 -61 -64 -127 40 -94 -104 -51
44 82 91 109 -37 -22 -7 -21
-13 -119 52 30 -7 17 -25 -10
120 10 32 127 126 84 101 127
-67 -89 -72 -81 64 -105 -127 -79
94 84 106 40 -93 86 68 -112
-47 -17 -69 98 117 120 59 -6
-99 -127 115 13 -28 37 105 -5
76 -13 30 -46 -90 -93 66 -8
-67 127 3 116 -3 -61 -52 -45
-12 98 62 -66 127 46 73 80
46 68 0 61 -62 22 61 0
-65 -73 -83 32 -24 -21 26 34
100 90 -6 -87 127 -104 101 -125
-48 65 -79 111 127 101 42 -112
-14 -50 75 -26 -67 56 92 2
119 73 50 -43 -73 110 106 42
104 2 17 -46 60 90 -127 0
-24 29 -94 88 59 127 108 -12
-104 -64 106 42 1 71 41 -29
45 102 112 116 34 78 6 2
-73 -46 -127 -90 10 4 23 31
5 78 122 93 -9 75 38 -35
-15 -15 -127 -100 -45 -78 -15 22
00000000: d594 c067 0beb 7d47 d685 2f7f 34c5 40cf
00000010: e1f6 d0af 23a3 9db7 7f2d 2242 cbce c58f
00000020: e26c 5e6f bd3d 154d d9c1 8c87 fcf7 ee7f
00000030: 600d c1dc f988 5a34 87b0 9781 d966 4aff
00000040: cdc3 c081 28a2 98cd 2c52 5b6d dbea f9eb
00000050: f389 341e f911 e7f6 780a 207f 7e54 657f
00000060: bda7 b8af 4097 81b1 5e54 6a28 a356 4490
00000070: d1ef bb62 7578 3bfa 9d81 730d e425 69fb
00000080: 4cf3 1ed2 a6a3 42f8 bd7f 0374 fdc3 ccd3
00000090: f462 3ebe 7f2e 4950 2e44 003d c216 3d00
000000a0: bfb7 ad20 e8eb 1a22 645a faa9 7f98 6583
000000b0: d041 b16f 7f65 2a90 f2ce 4be6 bd38 5c02
000000c0: 7749 32d5 b76e 6a2a 6802 11d2 3c5a 8100
000000d0: e81d a258 3b7f 6cf4 98c0 6a2a 0147 29e3
000000e0: 2d66 7074 224e 0602 b7d2 81a6 0a04 171f
000000f0: 054e 7a5d f74b 26dd f1f1 819c d3b2 f116

Conv2D;StatefulPartitionedCall/StatefulPartitionedCall/PartitionedCall_39/PartitionedCall/Conv2D i1 [32, 1, 1, 28]
102 69 16 77 19 -42 -50 74
68 14 59 115 71 13 -103 38
17 2 -59 -98 39 27 8 1
-9 -35 127 -18 -23 -30 15 -127
35 74 4 -63 -28 -108 -28 -19
-37 -42 46 90 25 10 56 12
22 66 -102 1 88 100 7 -92
-127 46 -8 -41 -9 81 -44 -37
-47 41 46 -70 52 -26 76 -16
-27 40 13 -18 -33 -42 82 -18
37 91 -8 -86 95 -78 -64 -109
-62 127 97 -89 101 51 113 66
30 -83 120 -76 17 91 94 -126
-106 -80 -75 -39 87 -95 86 -89
-115 48 -70 74 -33 -127 77 35
66 19 22 -59 33 -3 -16 -8
21 11 -8 100 -111 -99 26 -46
55 28 98 69 59 56 59 -42
31 77 12 -12 -5 -29 -119 27
-25 -35 42 44 3 60 81 104
-21 -39 -71 -19 112 127 -18 2
97 19 8 -11 27 -14 20 -19
50 38 -105 2 -36 5 19 -15
-31 -5 13 -127 -3 24 -50 1
27 46 41 39 -97 -84 -88 -122
69 127 98 81 75 -106 98 80
-75 93 97 -57 -118 71 74 85
89 100 -90 -67 97 82 103 66
-53 -86 -25 127 1 -118 19 -42
-1 -75 -45 12 -100 -70 69 -77
-101 69 52 21 84 36 -104 18
84 22 -19 14 30 48 -25 -111
00000000: 6645 104d 13d6 ce4a 440e 3b73 470d 9926
00000010: 1102 c59e 271b 0801 f7dd 7fee e9e2 0f81
00000020: 234a 04c1 e494 e4ed dbd6 2e5a 190a 380c
00000030: 1642 9a01 5864 07a4 812e f8d7 f751 d4db
00000040: d129 2eba 34e6 4cf0 e528 0dee dfd6 52ee
00000050: 255b f8aa 5fb2 c093 c27f 61a7 6533 7142
00000060: 1ead 78b4 115b 5e82 96b0 b5d9 57a1 56a7
00000070: 8d30 ba4a df81 4d23 4213 16c5 21fd f0f8
00000080: 150b f864 919d 1ad2 371c 6245 3b38 3bd6
00000090: 1f4d 0cf4 fbe3 891b e7dd 2a2c 033c 5168
000000a0: ebd9 b9ed 707f ee02 6113 08f5 1bf2 14ed
000000b0: 3226 9702 dc05 13f1 e1fb 0d81 fd18 ce01
000000c0: 1b2e 2927 9fac a886 457f 6251 4b96 6250
000000d0: b55d 61c7 8a47 4a55 5964 a6bd 6152 6742
000000e0: cbaa e77f 018a 13d6 ffb5 d30c 9cba 45b3
000000f0: 9b45 3415 5424 9812 5416 ed0e 1e30 e791

Conv2D;StatefulPartitionedCall/StatefulPartitionedCall/PartitionedCall_41/PartitionedCall/Conv2D i1 [96, 1, 1, 32]
100 22 51 79 3 8 116 -22
-11 -24 -113 -75 -50 42 -36 31
3 43 -57 -6 -43 60 73 -70
-127 -102 52 -21 100 53 -51 112
-15 79 46 -50 -60 57 72 55
90 -118 9 -19 -72 84 19 114
-24 -99 81 76 -74 -26 6 -106
-119 55 -22 -36 127 86 14 -31
-2 95 81 9 97 31 -84 127
-72 -43 90 80 6 -71 -9 2
-110 -99 -93 -103 27 -14 33 35
120 4 51 -57 122 34 88 26
8 -27 51 44 -26 -57 -96 11
-42 109 -47 6 4 -76 -86 26
6 102 -105 -11 -7 60 24 127
95 -56 -103 34 -55 -28 -96 29
92 -32 -98 -36 -107 17 -108 20
-108 15 -25 10 39 59 101 96
23 26 17 50 35 -31 -127 15
122 6 45 -110 84 66 -38 37
-10 51 -41 -77 31 -94 62 127
99 -93 -87 38 -53 105 -4 0
-10 -45 97 106 22 16 60 -17
-105 -18 -34 -59 33 55 63 56
-113 31 49 -73 -47 74 -89 70
48 -75 -45 49 125 105 -16 127
86 -50 62 125 89 -73 -109 62
104 86 -69 -80 30 -29 -54 -85
26 -8 -65 -87 -29 -8 -6 -74
56 -127 59 53 36 21 43 -55
-18 -94 45 -10 -17 -72 -20 -116
-32 66 62 17 47 17 67 4
00000000: 6416 334f 0308 74ea f5e8 8fb5 ce2a dc1f
00000010: 032b c7fa d53c 49ba 819a 34eb 6435 cd70
00000020: f14f 2ece c439 4837 5a8a 09ed b854 1372
00000030: e89d 514c b6e6 0696 8937 eadc 7f56 0ee1
00000040: fe5f 5109 611f ac7f b8d5 5a50 06b9 f702
00000050: 929d a399 1bf2 2123 7804 33c7 7a22 581a
00000060: 08e5 332c e6c7 a00b d66d d106 04b4 aa1a
00000070: 0666 97f5 f93c 187f 5fc8 9922 c9e4 a01d
00000080: 5ce0 9edc 9511 9414 940f e70a 273b 6560
00000090: 171a 1132 23e1 810f 7a06 2d92 5442 da25
000000a0: f633 d7b3 1fa2 3e7f 63a3 a926 cb69 fc00
000000b0: f6d3 616a 1610 3cef 97ee dec5 2137 3f38
000000c0: 8f1f 31b7 d14a a746 30b5 d331 7d69 f07f
000000d0: 56ce 3e7d 59b7 933e 6856 bbb0 1ee3 caab
000000e0: 1af8 bfa9 e3f8 fab6 3881 3b35 2415 2bc9
000000f0: eea2 2df6 efb8 ec8c e042 3e11 2f11 4304

Conv2D;StatefulPartitionedCall/StatefulPartitionedCall/PartitionedCall_47/PartitionedCall/Conv2D i1 [28, 1, 1, 96]
85 29 30 2 -29 17 33 88
45 73 24 -127 -90 21 72 8
36 38 -79 64 10 -32 21 97
90 -22 43 -45 -55 76 63 7
22 -39 21 -47 17 -85 -33 2
-12 49 -14 -33 32 11 12 -1
-32 75 -102 43 90 29 32 -25
-79 -108 -117 80 72 -39 -97 66
33 -126 115 73 8 87 4 -22
-73 -6 23 97 -10 -25 77 -77
19 79 13 -1 34 32 -90 42
95 20 12 13 -48 95 -11 -32
64 -63 42 28 0 19 34 3
-80 -2 10 15 92 114 46 24
121 -83 63 -41 -61 -29 34 112
49 4 29 29 21 14 77 -50
92 -22 120 16 38 95 -100 -69
81 102 44 7 -88 -53 27 2
52 102 64 71 31 -65 25 -24
107 10 127 4 4 14 -102 -31
-11 123 -12 -38 44 53 48 18
11 72 -18 44 -63 39 -19 -126
80 8 -30 31 -55 62 -84 27
-106 76 -39 21 19 33 61 98
-94 28 -13 -39 8 -7 -3 -77
5 -45 -13 6 -81 -50 -28 46
-61 13 30 50 19 19 18 -116
13 5 -49 53 -20 -55 32 -5
6 23 -37 -11 -19 -32 -1 34
55 -104 9 -9 -81 -60 -17 34
-47 -108 -4 2 -27 -103 34 40
82 10 61 9 -13 -5 10 -46
00000000: 551d 1e02 e311 2158 2d49 1881 a615 4808
00000010: 2426 b140 0ae0 1561 5aea 2bd3 c94c 3f07
00000020: 16d9 15d1 11ab df02 f431 f2df 200b 0cff
00000030: e04b 9a2b 5a1d 20e7 b194 8b50 48d9 9f42
00000040: 2182 7349 0857 04ea b7fa 1761 f6e7 4db3
00000050: 134f 0dff 2220 a62a 5f14 0c0d d05f f5e0
00000060: 40c1 2a1c 0013 2203 b0fe 0a0f 5c72 2e18
00000070: 79ad 3fd7 c3e3 2270 3104 1d1d 150e 4dce
00000080: 5cea 7810 265f 9cbb 5166 2c07 a8cb 1b02
00000090: 3466 4047 1fbf 19e8 6b0a 7f04 040e 9ae1
000000a0: f57b f4da 2c35 3012 0b48 ee2c c127 ed82
000000b0: 5008 e21f c93e ac1b 964c d915 1321 3d62
000000c0: a21c f3d9 08f9 fdb3 05d3 f306 afce e42e
000000d0: c30d 1e32 1313 128c 0d05 cf35 ecc9 20fb
000000e0: 0617 dbf5 ede0 ff22 3798 09f7 afc4 ef22
000000f0: d194 fc02 e599 2228 520a 3d09 f3fb 0ad2

Conv2D;StatefulPartitionedCall/StatefulPartitionedCall/PartitionedCall_52/PartitionedCall/Conv2D i1 [96, 1, 1, 32]
125 -3 -23 -115 48 -27 110 -94
-15 -5 78 35 -19 -89 39 55
66 103 -29 22 -88 32 80 -113
-47 -53 127 30 72 104 -27 42
-106 -34 90 -113 -86 75 66 -45
50 40 94 29 60 -81 51 -46
67 -101 54 -67 114 -60 -71 -79
84 -79 127 -35 -122 -67 -37 -122
37 127 -85 -121 116 -53 -97 -100
-23 -67 102 121 -93 105 69 33
-79 104 112 41 -73 -25 -33 -98
112 91 -40 -66 30 28 67 -71
-47 73 18 -11 -127 -115 -100 44
41 -31 -126 -107 -63 52 -28 -31
-69 20 -24 70 -23 56 24 40
58 111 -90 -47 67 15 -25 38
-30 106 -1 -89 -51 76 -12 -15
45 -12 -17 -76 -32 12 84 -8
-90 75 44 54 76 -2 -122 21
105 43 39 -108 127 -72 39 115
-50 33 -23 95 35 120 37 127
-33 60 -89 -40 39 -81 -105 -1
16 -41 26 -32 -96 -122 112 -45
-70 -18 -81 97 -10 -120 -34 -16
56 39 6 68 -33 -45 -91 126
68 -31 72 40 0 81 5 16
-118 -86 81 -80 -30 -100 14 -64
-92 91 112 -74 126 92 127 -63
-33 16 -55 -68 -20 -26 -127 -6
-80 -86 56 -123 3 2 -16 -19
-106 20 -78 -70 62 -10 -45 5
118 93 43 102 -20 -69 90 29
00000000: 7dfd e98d 30e5 6ea2 f1fb 4e23 eda7 2737
00000010: 4267 e316 a820 508f d1cb 7f1e 4868 e52a
00000020: 96de 5a8f aa4b 42d3 3228 5e1d 3caf 33d2
00000030: 439b 36bd 72c4 b9b1 54b1 7fdd 86bd db86
00000040: 257f ab87 74cb 9f9c e9bd 6679 a369 4521
00000050: b168 7029 b7e7 df9e 705b d8be 1e1c 43b9
00000060: d149 12f5 818d 9c2c 29e1 8295 c134 e4e1
00000070: bb14 e846 e938 1828 3a6f a6d1 430f e726
00000080: e26a ffa7 cd4c f4f1 2df4 efb4 e00c 54f8
00000090: a64b 2c36 4cfe 8615 692b 2794 7fb8 2773
000000a0: ce21 e95f 2378 257f df3c a7d8 27af 97ff
000000b0: 10d7 1ae0 a086 70d3 baee af61 f688 def0
000000c0: 3827 0644 dfd3 a57e 44e1 4828 0051 0510
000000d0: 8aaa 51b0 e29c 0ec0 a45b 70b6 7e5c 7fc1
000000e0: df10 c9bc ece6 81fa b0aa 3885 0302 f0ed
000000f0: 9614 b2ba 3ef6 d305 765d 2b66 ecbb 5a1d

Conv2D;StatefulPartitionedCall/StatefulPartitionedCall/PartitionedCall_58/PartitionedCall/Conv2D i1 [28, 1, 1, 96]
-7 82 -6 -20 4 -18 116 -73
-79 -8 14 21 -30 50 0 -62
-31 -51 -69 102 -41 27 70 11
-44 47 -38 -6 71 0 -10 -48
13 36 115 -68 -18 83 -59 101
46 -45 68 38 34 72 -13 87
-4 -27 -27 44 3 44 -10 58
92 34 13 -109 34 81 -87 -17
-87 -68 109 117 58 -32 76 -17
111 -53 40 -3 -2 -51 18 78
93 -28 -12 103 -4 -12 -61 118
127 12 -61 -72 51 -58 -3 29
-10 -38 -6 -11 19 43 -4 84
-82 -44 -83 5 -20 34 -35 28
88 -4 11 67 90 74 85 -23
52 -82 40 8 17 -13 -12 40
8 -43 36 0 -9 -17 15 -25
-59 19 31 -29 -12 85 98 70
111 12 34 10 76 -23 6 -47
-2 27 -29 67 -17 -29 49 36
26 28 -9 44 31 35 11 -95
-19 -38 -2 -4 111 -18 -28 106
-30 -14 2 -46 6 2 58 -8
-118 -41 33 127 27 89 53 10
27 -11 -15 5 -28 -1 -88 -59
-31 -30 39 -11 -2 -49 22 -17
55 -44 -16 -71 -70 6 7 -17
-41 -34 60 -66 0 5 -4 -57
-87 14 25 4 18 -81 -71 -93
42 -94 -31 -26 127 -23 -77 -32
17 -85 -17 19 16 -22 61 -8
21 16 -23 69 14 8 -45 62
00000000: f952 faec 04ee 74b7 b1f8 0e15 e232 00c2
00000010: e1cd bb66 d71b 460b d42f dafa 4700 f6d0
00000020: 0d24 73bc ee53 c565 2ed3 4426 2248 f357
00000030: fce5 e52c 032c f63a 5c22 0d93 2251 a9ef
00000040: a9bc 6d75 3ae0 4cef 6fcb 28fd fecd 124e
00000050: 5de4 f467 fcf4 c376 7f0c c3b8 33c6 fd1d
00000060: f6da faf5 132b fc54 aed4 ad05 ec22 dd1c
00000070: 58fc 0b43 5a4a 55e9 34ae 2808 11f3 f428
00000080: 08d5 2400 f7ef 0fe7 c513 1fe3 f455 6246
00000090: 6f0c 220a 4ce9 06d1 fe1b e343 efe3 3124
000000a0: 1a1c f72c 1f23 0ba1 edda fefc 6fee e46a
000000b0: e2f2 02d2 0602 3af8 8ad7 217f 1b59 350a
000000c0: 1bf5 f105 e4ff a8c5 e1e2 27f5 fecf 16ef
000000d0: 37d4 f0b9 ba06 07ef d7de 3cbe 0005 fcc7
000000e0: a90e 1904 12af b9a3 2aa2 e1e6 7fe9 b3e0
000000f0: 11ab ef13 10ea 3df8 1510 e945 0e08 d33e

Conv2D;StatefulPartitionedCall/StatefulPartitionedCall/PartitionedCall_63/PartitionedCall/Conv2D i1 [152, 1, 1, 32]
68 -4 -87 -50 -75 -78 -127 36
107 17 -88 -58 37 22 48 -55
-22 83 90 -92 -12 63 36 120
-16 56 -71 -80 76 -98 82 -46
-5 124 79 38 6 70 -94 33
36 -39 119 36 -8 -74 -41 -54
-49 -99 -100 66 79 111 0 90
50 -24 44 -57 116 64 38 127
-53 57 -76 -105 27 43 -115 -50
25 64 126 -101 -73 -36 -63 47
-96 17 24 -20 63 93 117 -34
127 98 119 -12 -69 -103 111 -33
56 -7 -17 50 -58 -11 18 47
56 75 -10 -86 70 -37 76 14
-105 -42 75 -45 44 47 -127 42
-36 -23 105 55 19 -87 87 -52
6 38 -62 -64 50 12 -15 64
127 40 98 -6 13 49 -1 -29
20 -111 90 10 29 -91 36 -34
55 49 55 -65 -53 -21 72 -17
-29 67 -9 77 -9 81 63 105
59 25 -98 -85 19 17 -116 -34
-50 -74 66 -72 -41 -61 17 -25
-88 32 -82 127 14 -64 -51 27
42 46 28 -62 65 88 107 -37
-33 75 51 -44 1 30 127 31
5 100 21 7 73 17 -112 -94
-22 -60 108 -53 -21 -56 -97 16
-29 70 -36 33 -62 57 76 83
73 82 56 -97 39 -40 -17 17
-19 -127 47 22 59 -60 -79 35
-42 -71 69 39 40 -14 24 -4
00000000: 44fc a9ce b5b2 8124 6b11 a8c6 2516 30c9
00000010: ea53 5aa4 f43f 2478 f038 b9b0 4c9e 52d2
00000020: fb7c 4f26 0646 a221 24d9 7724 f8b6 d7ca
00000030: cf9d 9c42 4f6f 005a 32e8 2cc7 7440 267f
00000040: cb39 b497 1b2b 8dce 1940 7e9b b7dc c12f
00000050: a011 18ec 3f5d 75de 7f62 77f4 bb99 6fdf
00000060: 38f9 ef32 c6f5 122f 384b f6aa 46db 4c0e
00000070: 97d6 4bd3 2c2f 812a dce9 6937 13a9 57cc
00000080: 0626 c2c0 320c f140 7f28 62fa 0d31 ffe3
00000090: 1491 5a0a 1da5 24de 3731 37bf cbeb 48ef
000000a0: e343 f74d f751 3f69 3b19 9eab 1311 8cde
000000b0: ceb6 42b8 d7c3 11e7 a820 ae7f 0ec0 cd1b
000000c0: 2a2e 1cc2 4158 6bdb df4b 33d4 011e 7f1f
000000d0: 0564 1507 4911 90a2 eac4 6ccb ebc8 9f10
000000e0: e346 dc21 c239 4c53 4952 389f 27d8 ef11
000000f0: ed81 2f16 3bc4 b123 d6b9 4527 28f2 18fc

Conv2D;StatefulPartitionedCall/StatefulPartitionedCall/PartitionedCall_69/PartitionedCall/Conv2D i1 [44, 1, 1, 152]
7 -17 -22 56 59 6 -25 18
-69 77 -10 -75 -61 -29 -40 -44
-37 -6 127 -11 2 87 23 -12
26 10 -67 7 -21 52 -40 -74
38 -51 23 3 28 15 -17 -68
24 -46 52 94 3 13 21 41
-7 -2 -19 20 16 -93 16 43
-2 -29 -23 0 -93 4 29 -71
13 -22 60 -1 13 -45 8 17
49 -76 -37 26 21 -16 61 94
-12 61 54 -34 -15 64 -116 33
-10 -81 -50 60 49 -29 40 52
-37 53 39 39 19 -17 31 -74
20 95 22 13 -12 105 49 -35
-75 -30 51 -98 -74 -3 33 5
-24 -3 64 -5 -71 16 -24 -2
38 -42 66 -101 11 -81 76 37
15 35 -21 8 27 -48 -23 18
55 -59 -34 -15 39 40 -41 -55
-8 -28 69 54 -26 72 4 33
-79 -14 37 -63 0 72 -52 -73
40 11 -47 14 -63 -23 25 5
-25 -20 25 -2 18 73 79 23
10 52 54 62 -3 -16 13 -52
86 -9 13 -32 15 25 19 -61
-8 -10 31 -32 57 -37 -39 -61
-10 -31 32 34 0 -92 56 -7
6 13 101 15 105 58 45 -13
4 -34 -54 3 44 -42 -84 -18
-13 -52 60 -5 -9 -68 23 78
20 -28 -127 22 83 -14 -1 -86
10 -108 -114 -4 31 18 13 -22
00000000: 07ef ea38 3b06 e712 bb4d f6b5 c3e3 d8d4
00000010: dbfa 7ff5 0257 17f4 1a0a bd07 eb34 d8b6
00000020: 26cd 1703 1c0f efbc 18d2 345e 030d 1529
00000030: f9fe ed14 10a3 102b fee3 e900 a304 1db9
00000040: 0dea 3cff 0dd3 0811 31b4 db1a 15f0 3d5e
00000050: f43d 36de f140 8c21 f6af ce3c 31e3 2834
00000060: db35 2727 13ef 1fb6 145f 160d f469 31dd
00000070: b5e2 339e b6fd 2105 e8fd 40fb b910 e8fe
00000080: 26d6 429b 0baf 4c25 0f23 eb08 1bd0 e912
00000090: 37c5 def1 2728 d7c9 f8e4 4536 e648 0421
000000a0: b1f2 25c1 0048 ccb7 280b d10e c1e9 1905
000000b0: e7ec 19fe 1249 4f17 0a34 363e fdf0 0dcc
000000c0: 56f7 0de0 0f19 13c3 f8f6 1fe0 39db d9c3
000000d0: f6e1 2022 00a4 38f9 060d 650f 693a 2df3
000000e0: 04de ca03 2cd6 acee f3cc 3cfb f7bc 174e
000000f0: 14e4 8116 53f2 ffaa 0a94 8efc 1f12 0dea

Conv2D;StatefulPartitionedCall/StatefulPartitionedCall/PartitionedCall_71/PartitionedCall/Conv2D i1 [268, 1, 1, 44]
-58 69 -127 52 102 -44 23 23
-45 -26 -124 53 -13 104 -77 -107
66 37 123 -40 86 96 -33 -13
27 92 -30 -5 -49 -54 52 15
24 -122 -5 -73 21 -28 53 -107
65 -71 -17 32 -11 -4 21 33
-82 -117 86 -38 -58 -9 -7 -99
-84 -24 38 8 67 -24 -49 18
12 -79 -31 -35 -27 91 -42 127
-27 38 -33 29 75 94 18 -24
66 -53 -26 50 12 -9 -33 7
91 24 -51 40 -60 11 -25 -63
52 34 -11 -55 65 127 -35 -36
-23 -43 -23 1 -11 8 39 19
-43 19 -67 -44 -127 110 -53 66
9 88 3 -16 -20 56 -81 86
62 7 -46 -47 -103 127 -60 53
-13 10 -27 10 84 -6 -8 -27
53 -59 22 -55 -75 -17 -49 -85
-71 39 14 124 -56 113 -81 45
8 -33 -9 67 -69 -15 -64 -92
-40 45 -53 52 50 75 -71 98
88 -103 -58 13 21 -36 -37 56
31 57 116 102 -22 37 50 5
-61 58 -120 10 9 -127 -46 -53
-11 -50 115 -57 126 -39 2 67
23 28 48 71 87 76 29 -3
-9 -101 -69 -33 -75 -115 45 -54
-103 -43 12 69 -86 15 -40 76
-71 17 -36 -90 95 84 36 -37
-53 -69 -103 40 69 32 32 -101
-56 53 50 33 106 -53 -41 -68
00000000: c645 8134 66d4 1717 d3e6 8435 f368 b395
00000010: 4225 7bd8 5660 dff3 1b5c e2fb cfca 340f
00000020: 1886 fbb7 15e4 3595 41b9 ef20 f5fc 1521
00000030: ae8b 56da c6f7 f99d ace8 2608 43e8 cf12
00000040: 0cb1 e1dd e55b d67f e526 df1d 4b5e 12e8
00000050: 42cb e632 0cf7 df07 5b18 cd28 c40b e7c1
00000060: 3422 f5c9 417f dddc e9d5 e901 f508 2713
00000070: d513 bdd4 816e cb42 0958 03f0 ec38 af56
00000080: 3e07 d2d1 997f c435 f30a e50a 54fa f8e5
00000090: 35c5 16c9 b5ef cfab b927 0e7c c871 af2d
000000a0: 08df f743 bbf1 c0a4 d82d cb34 324b b962
000000b0: 5899 c60d 15dc db38 1f39 7466 ea25 3205
000000c0: c33a 880a 0981 d2cb f5ce 73c7 7ed9 0243
000000d0: 171c 3047 574c 1dfd f79b bbdf b58d 2dca
000000e0: 99d5 0c45 aa0f d84c b911 dca6 5f54 24db
000000f0: cbbb 9928 4520 209b c835 3221 6acb d7bc

Conv2D;StatefulPartitionedCall/StatefulPartitionedCall/PartitionedCall_77/PartitionedCall/Conv2D i1 [40, 1, 1, 268]
9 -11 -15 -25 17 33 28 -44
-98 39 21 64 -51 16 1 -80
-19 -21 40 -32 -9 4 31 -35
12 2 -49 16 11 52 45 -35
17 0 65 -3 -5 47 -6 103
22 -31 -28 12 -65 43 20 5
-69 77 -127 84 -93 -20 -21 6
54 3 -108 -8 54 -50 -9 30
9 -44 -23 16 11 22 105 23
24 32 8 -89 -48 -8 11 80
-108 35 -32 56 2 -47 12 -1
9 4 -10 -44 -40 -35 0 -3
-59 -64 77 3 -2 14 -7 5
-6 34 25 -9 0 -54 42 35
-21 5 -42 10 -6 -98 27 2
-94 5 -90 -76 -17 -24 -8 -17
-7 -34 -17 -18 54 33 27 22
-7 -21 21 109 52 -66 -9 90
-103 56 -27 118 -13 -4 0 -7
19 2 11 -24 -77 12 -17 -24
-78 -103 -1 21 21 -18 29 23
4 -63 50 26 37 -31 -2 -30
50 -17 84 18 38 23 -91 5
8 -82 -38 49 10 -28 -7 -5
70 -24 -21 -15 -32 -14 0 -29
36 0 0 -72 -47 10 -3 -75
22 20 -27 -38 -3 45 54 38
-1 30 49 6 -5 -10 47 -57
-26 71 -85 7 -31 -13 32 -26
74 -25 18 -40 -9 19 -3 -51
0 78 -24 -37 12 30 2 -22
111 -17 4 -37 -19 4 -13 -2
00000000: 09f5 f1e7 1121 1cd4 9e27 1540 cd10 01b0
00000010: edeb 28e0 f704 1fdd 0c02 cf10 0b34 2ddd
00000020: 1100 41fd fb2f fa67 16e1 e40c bf2b 1405
00000030: bb4d 8154 a3ec eb06 3603 94f8 36ce f71e
00000040: 09d4 e910 0b16 6917 1820 08a7 d0f8 0b50
00000050: 9423 e038 02d1 0cff 0904 f6d4 d8dd 00fd
00000060: c5c0 4d03 fe0e f905 fa22 19f7 00ca 2a23
00000070: eb05 d60a fa9e 1b02 a205 a6b4 efe8 f8ef
00000080: f9de efee 3621 1b16 f9eb 156d 34be f75a
00000090: 9938 e576 f3fc 00f9 1302 0be8 b30c efe8
000000a0: b299 ff15 15ee 1d17 04c1 321a 25e1 fee2
000000b0: 32ef 5412 2617 a505 08ae da31 0ae4 f9fb
000000c0: 46e8 ebf1 e0f2 00e3 2400 00b8 d10a fdb5
000000d0: 1614 e5da fd2d 3626 ff1e 3106 fbf6 2fc7
000000e0: e647 ab07 e1f3 20e6 4ae7 12d8 f713 fdcd
000000f0: 004e e8db 0c1e 02ea 6fef 04db ed04 f3fe

Conv2D;StatefulPartitionedCall/StatefulPartitionedCall/PartitionedCall_82/PartitionedCall/Conv2D i1 [268, 1, 1, 44]
50 2 39 64 -13 9 -70 80
117 13 72 -10 72 0 18 42
-82 10 -1 -24 76 7 -32 33
59 48 67 23 -28 -52 51 -10
-49 34 63 80 -127 6 43 -51
-39 -28 -41 -59 -20 -23 -49 52
122 31 -75 -91 44 26 -37 -33
66 43 1 60 -113 -107 27 45
-84 -45 -38 -61 -22 -48 -62 18
-20 62 -112 -57 93 -59 -17 -47
-44 -31 -116 23 22 64 127 -8
7 -96 -87 -95 56 -20 98 -66
107 22 47 48 -19 -41 20 43
30 -38 -3 -48 3 31 -89 -25
-24 -37 -17 55 -74 29 -8 57
20 127 -12 30 39 40 -23 37
-95 14 -34 12 -46 30 -41 24
62 -14 32 54 63 -42 67 -3
53 -34 13 -74 71 71 -16 -61
-2 -73 -6 67 -14 37 0 -14
1 0 -73 -29 30 35 -95 62
-67 -79 -11 -127 69 -38 30 1
-23 56 100 -61 -88 -40 -82 -33
-44 -77 -70 127 -49 -66 0 -63
87 82 -26 -99 -38 53 -41 -31
83 -23 58 -92 -48 61 65 55
-66 -19 71 77 122 -53 -39 -61
16 -94 38 63 43 103 -56 -3
-65 16 100 -3 17 -78 -72 -54
-47 -17 -13 79 34 57 22 -7
12 17 -101 -93 -35 -49 127 -118
-53 -19 12 117 97 2 79 -43
00000000: 3202 2740 f309 ba50 750d 48f6 4800 122a
00000010: ae0a ffe8 4c07 e021 3b30 4317 e4cc 33f6
00000020: cf22 3f50 8106 2bcd d9e4 d7c5 ece9 cf34
00000030: 7a1f b5a5 2c1a dbdf 422b 013c 8f95 1b2d
00000040: acd3 dac3 ead0 c212 ec3e 90c7 5dc5 efd1
00000050: d4e1 8c17 1640 7ff8 07a0 a9a1 38ec 62be
00000060: 6b16 2f30 edd7 142b 1eda fdd0 031f a7e7
00000070: e8db ef37 b61d f839 147f f41e 2728 e925
00000080: a10e de0c d21e d718 3ef2 2036 3fd6 43fd
00000090: 35de 0db6 4747 f0c3 feb7 fa43 f225 00f2
000000a0: 0100 b7e3 1e23 a13e bdb1 f581 45da 1e01
000000b0: e938 64c3 a8d8 aedf d4b3 ba7f cfbe 00c1
000000c0: 5752 e69d da35 d7e1 53e9 3aa4 d03d 4137
000000d0: beed 474d 7acb d9c3 10a2 263f 2b67 c8fd
000000e0: bf10 64fd 11b2 b8ca d1ef f34f 2239 16f9
000000f0: 0c11 9ba3 ddcf 7f8a cbed 0c75 6102 4fd5

Conv2D;StatefulPartitionedCall/StatefulPartitionedCall/PartitionedCall_88/PartitionedCall/Conv2D i1 [52, 1, 1, 268]
-8 -84 5 -10 -19 48 1 -22
-8 -5 -86 19 42 -46 5 41
-13 -80 -7 -2 28 1 -7 59
1 -2 -5 79 -11 -11 14 -10
38 28 0 -8 -34 -75 -12 -48
-107 -42 -16 -5 -25 -15 -40 31
-19 -82 26 23 -3 19 10 -28
-34 15 7 4 91 -4 -11 43
26 2 8 14 -7 18 -47 72
-42 -29 4 30 33 -60 8 34
72 -20 -15 -12 -2 -50 -1 -87
-4 -4 3 10 90 4 -59 -28
10 34 4 -5 -69 127 0 -19
-68 -120 60 -10 12 89 24 9
-8 5 30 31 15 -5 7 -3
-4 1 9 17 14 -41 13 -8
8 33 18 4 -8 0 -12 68
40 95 -16 -1 8 -117 -7 -17
46 26 -63 77 -8 -120 1 -32
-10 -21 36 5 -18 4 21 36
0 -5 -20 78 4 64 -34 19
-2 -52 80 0 -17 43 20 -16
-10 -108 -13 -3 49 -34 -21 -53
9 64 3 62 35 -7 -18 -79
-94 -86 23 34 -46 -62 -11 -40
-36 -7 85 22 -4 -61 -10 10
-1 -8 2 0 -86 87 2 47
-15 -41 30 113 -31 12 -24 -8
44 12 -7 -3 30 36 -5 2
-38 -116 -29 39 -40 9 31 -66
3 -13 8 83 -16 83 52 2
21 -8 7 -41 28 16 15 7
00000000: f8ac 05f6 ed30 01ea f8fb aa13 2ad2 0529
00000010: f3b0 f9fe 1c01 f93b 01fe fb4f f5f5 0ef6
00000020: 261c 00f8 deb5 f4d0 95d6 f0fb e7f1 d81f
00000030: edae 1a17 fd13 0ae4 de0f 0704 5bfc f52b
00000040: 1a02 080e f912 d148 d6e3 041e 21c4 0822
00000050: 48ec f1f4 fece ffa9 fcfc 030a 5a04 c5e4
00000060: 0a22 04fb bb7f 00ed bc88 3cf6 0c59 1809
00000070: f805 1e1f 0ffb 07fd fc01 0911 0ed7 0df8
00000080: 0821 1204 f800 f444 285f f0ff 088b f9ef
00000090: 2e1a c14d f888 01e0 f6eb 2405 ee04 1524
000000a0: 00fb ec4e 0440 de13 fecc 5000 ef2b 14f0
000000b0: f694 f3fd 31de ebcb 0940 033e 23f9 eeb1
000000c0: a2aa 1722 d2c2 f5d8 dcf9 5516 fcc3 f60a
000000d0: fff8 0200 aa57 022f f1d7 1e71 e10c e8f8
000000e0: 2c0c f9fd 1e24 fb02 da8c e327 d809 1fbe
000000f0: 03f3 0853 f053 3402 15f8 07d7 1c10 0f07

Conv2D;StatefulPartitionedCall/StatefulPartitionedCall/PartitionedCall_93/PartitionedCall/Conv2D i1 [268, 1, 1, 52]
20 -8 -85 3 68 100 39 9
30 -67 -50 -33 28 18 -49 6
64 8 -127 9 99 -16 100 -88
-19 125 -1 -7 31 37 -48 4
-38 58 -27 27 9 42 -91 -2
12 30 28 -53 -50 32 51 -22
78 -34 3 -22 -75 -19 104 1
-63 -21 -41 28 48 -61 -43 35
74 39 24 -45 26 8 -65 -37
67 9 7 13 28 -38 13 22
-63 38 46 -11 -60 38 -34 67
45 -45 23 -127 -8 -42 -69 -21
35 20 -4 -40 39 18 7 47
64 82 36 75 80 -55 82 -103
90 -75 53 -40 -78 -86 -26 -66
77 89 43 -94 89 3 -54 -60
-49 -44 72 49 94 118 -55 127
-93 -81 106 109 -66 -70 -40 -112
48 -42 27 -72 -32 76 34 25
50 -41 -34 58 50 -58 -94 89
6 -62 10 -40 10 58 107 -84
-105 6 63 49 6 94 23 20
-43 14 -44 41 25 -12 -1 -12
-34 -5 -127 2 44 -37 -20 -41
-41 -46 28 61 -51 -41 60 41
-93 47 -32 -23 -54 19 1 -90
41 88 7 -75 77 -46 53 -81
-78 -40 -62 -76 -58 -70 51 -26
64 -77 66 31 4 86 -74 -55
127 -88 -18 -58 -49 -119 -57 -98
-22 39 -7 -75 25 -35 -62 -67
-9 78 64 49 38 5 81 -77
00000000: 14f8 ab03 4464 2709 1ebd cedf 1c12 cf06
00000010: 4008 8109 63f0 64a8 ed7d fff9 1f25 d004
00000020: da3a e51b 092a a5fe 0c1e 1ccb ce20 33ea
00000030: 4ede 03ea b5ed 6801 c1eb d71c 30c3 d523
00000040: 4a27 18d3 1a08 bfdb 4309 070d 1cda 0d16
00000050: c126 2ef5 c426 de43 2dd3 1781 f8d6 bbeb
00000060: 2314 fcd8 2712 072f 4052 244b 50c9 5299
00000070: 5ab5 35d8 b2aa e6be 4d59 2ba2 5903 cac4
00000080: cfd4 4831 5e76 c97f a3af 6a6d beba d890
00000090: 30d6 1bb8 e04c 2219 32d7 de3a 32c6 a259
000000a0: 06c2 0ad8 0a3a 6bac 9706 3f31 065e 1714
000000b0: d50e d429 19f4 fff4 defb 8102 2cdb ecd7
000000c0: d7d2 1c3d cdd7 3c29 a32f e0e9 ca13 01a6
000000d0: 2958 07b5 4dd2 35af b2d8 c2b4 c6ba 33e6
000000e0: 40b3 421f 0456 b6c9 7fa8 eec6 cf89 c79e
000000f0: ea27 f9b5 19dd c2bd f74e 4031 2605 51b3

Conv2D;StatefulPartitionedCall/StatefulPartitionedCall/PartitionedCall_99/PartitionedCall/Conv2D i1 [44, 1, 1, 268]
7 10 7 19 40 7 -5 -12
71 -64 67 2 118 -46 50 93
-42 57 17 -11 9 10 66 -14
17 -52 -31 55 46 13 69 43
5 -11 5 19 22 12 -2 21
-56 -27 66 -13 76 106 -10 5
-21 5 -7 41 60 55 46 -94
-46 10 -19 22 -51 17 -8 -25
-49 -121 20 51 58 -27 82 -28
65 16 11 -18 -21 -15 -15 -44
-8 -30 9 -21 -73 -9 -3 -32
53 -76 11 -32 -37 7 -25 11
-35 112 13 38 -13 -2 0 -47
40 -10 -20 -56 -1 53 -11 -3
7 -24 -37 39 -100 5 -6 -22
-6 62 -15 20 -29 59 12 -23
-38 12 -43 6 -33 -55 31 1
70 -4 39 34 27 12 -8 21
-5 3 20 8 -91 -15 63 -52
-14 -2 -25 127 7 11 51 -16
16 20 24 -9 71 -5 -63 -4
-39 -15 21 -22 69 -102 3 26
107 26 -90 12 34 7 -2 23
-2 36 -21 -64 39 -7 47 6
44 1 20 8 -1 69 -11 -50
-63 -16 41 6 40 43 -95 -7
15 36 -34 15 37 -25 17 -20
33 -2 47 -9 55 -115 -109 -22
-28 -54 3 2 12 13 -12 -12
85 95 20 -7 -48 8 27 -35
26 -14 -21 -18 38 -11 29 -1
46 90 11 8 -27 -1 17 61
00000000: 070a 0713 2807 fbf4 47c0 4302 76d2 325d
00000010: d639 11f5 090a 42f2 11cc e137 2e0d 452b
00000020: 05f5 0513 160c fe15 c8e5 42f3 4c6a f605
00000030: eb05 f929 3c37 2ea2 d20a ed16 cd11 f8e7
00000040: cf87 1433 3ae5 52e4 4110 0bee ebf1 f1d4
00000050: f8e2 09eb b7f7 fde0 35b4 0be0 db07 e70b
00000060: dd70 0d26 f3fe 00d1 28f6 ecc8 ff35 f5fd
00000070: 07e8 db27 9c05 faea fa3e f114 e33b 0ce9
00000080: da0c d506 dfc9 1f01 46fc 2722 1b0c f815
00000090: fb03 1408 a5f1 3fcc f2fe e77f 070b 33f0
000000a0: 1014 18f7 47fb c1fc d9f1 15ea 459a 031a
000000b0: 6b1a a60c 2207 fe17 fe24 ebc0 27f9 2f06
000000c0: 2c01 1408 ff45 f5ce c1f0 2906 282b a1f9
000000d0: 0f24 de0f 25e7 11ec 21fe 2ff7 378d 93ea
000000e0: e4ca 0302 0c0d f4f4 555f 14f9 d008 1bdd
000000f0: 1af2 ebee 26f5 1dff 2e5a 0b08 e5ff 113d

Conv2D;StatefulPartitionedCall/StatefulPartitionedCall/PartitionedCall_104/PartitionedCall/Conv2D i1 [192, 1, 1, 52]
-52 44 35 -86 19 47 40 99
32 -28 47 -103 73 -53 -75 20
-63 -57 -57 53 -35 -11 29 35
-127 -53 -77 -96 -64 -8 -38 -27
85 41 -80 -50 -67 -42 -29 -1
26 -73 24 -80 -17 -47 -47 42
-8 37 -41 14 -36 64 -127 7
3 72 -25 -1 104 -21 101 -63
86 36 33 -51 -79 89 -36 52
-24 40 -56 2 -65 16 81 4
44 42 -81 -26 26 -27 -13 4
86 39 -40 15 -26 -21 -70 -23
67 60 56 -57 -39 22 -28 -65
-80 115 40 -119 45 109 -120 1
-43 -44 82 98 12 -62 64 -72
23 36 -12 -73 10 79 41 104
-81 5 14 32 -10 127 21 -26
-71 -82 -10 -5 15 -36 -9 65
-44 -77 -94 73 -2 8 -21 -8
9 4 -74 32 45 101 -90 28
68 -84 103 -79 -108 -19 37 -85
-127 -56 50 -26 35 69 -72 82
-21 50 85 96 79 27 62 -83
68 -92 -40 42 -83 39 -60 -36
-64 -44 -77 -69 -3 26 79 98
55 12 -30 -47 -33 -4 -77 -80
16 -35 25 -17 44 69 37 -7
-15 4 -86 -34 33 59 -75 56
42 20 -24 22 -29 -68 29 5
-76 -11 127 -75 33 74 -45 6
100 19 -80 41 -20 36 19 18
117 33 20 -67 -25 -49 -38 2
00000000: cc2c 23aa 132f 2863 20e4 2f99 49cb b514
00000010: c1c7 c735 ddf5 1d23 81cb b3a0 c0f8 dae5
00000020: 5529 b0ce bdd6 e3ff 1ab7 18b0 efd1 d12a
00000030: f825 d70e dc40 8107 0348 e7ff 68eb 65c1
00000040: 5624 21cd b159 dc34 e828 c802 bf10 5104
00000050: 2c2a afe6 1ae5 f304 5627 d80f e6eb bae9
00000060: 433c 38c7 d916 e4bf b073 2889 2d6d 8801
00000070: d5d4 5262 0cc2 40b8 1724 f4b7 0a4f 2968
00000080: af05 0e20 f67f 15e6 b9ae f6fb 0fdc f741
00000090: d4b3 a249 fe08 ebf8 0904 b620 2d65 a61c
000000a0: 44ac 67b1 94ed 25ab 81c8 32e6 2345 b852
000000b0: eb32 5560 4f1b 3ead 44a4 d82a ad27 c4dc
000000c0: c0d4 b3bb fd1a 4f62 370c e2d1 dffc b3b0
000000d0: 10dd 19ef 2c45 25f9 f104 aade 213b b538
000000e0: 2a14 e816 e3bc 1d05 b4f5 7fb5 214a d306
000000f0: 6413 b029 ec24 1312 7521 14bd e7cf da02

Conv2D;StatefulPartitionedCall/StatefulPartitionedCall/PartitionedCall_110/PartitionedCall/Conv2D i1 [68, 1, 1, 192]
17 5 -50 61 -19 -111 65 -7
-8 -12 12 14 -27 59 68 -100
-28 110 55 59 13 -35 30 109
-103 10 18 37 22 -36 -78 -98
-17 -105 -18 -2 27 12 -58 108
-4 -2 52 -6 7 -82 24 -84
-11 25 -105 35 40 83 68 -4
-21 23 -3 16 16 58 68 14
-33 -67 34 71 -20 -104 0 -6
14 -63 16 -19 -39 -5 11 -39
6 8 32 41 9 -23 35 -79
-1 43 -61 0 23 -13 -55 24
11 10 2 6 -48 -26 -6 54
49 58 -68 -1 42 -103 -38 -80
-12 127 3 23 48 -10 -65 42
23 -101 -6 112 71 60 36 77
33 -19 -23 -102 3 31 16 -79
5 12 -41 -36 26 19 -30 -55
46 9 -91 8 -11 51 -35 -24
1 33 -19 23 -38 12 -30 0
-57 73 12 -6 -5 -4 3 14
38 -43 82 -25 22 -45 -76 47
48 85 31 66 7 75 -6 -30
-84 24 -26 19 18 74 -85 -50
-23 15 -41 34 119 -34 -105 6
-12 0 37 5 76 -10 -77 -7
8 63 -40 58 17 16 -44 -19
39 -24 68 36 -12 110 25 58
-26 104 -12 11 -5 19 68 -11
7 11 70 24 3 8 -59 -4
3 -18 -47 -50 -13 1 1 1
-38 -39 4 -43 21 -37 -57 71
00000000: 1105 ce3d ed91 41f9 f8f4 0c0e e53b 449c
00000010: e46e 373b 0ddd 1e6d 990a 1225 16dc b29e
00000020: ef97 eefe 1b0c c66c fcfe 34fa 07ae 18ac
00000030: f519 9723 2853 44fc eb17 fd10 103a 440e
00000040: dfbd 2247 ec98 00fa 0ec1 10ed d9fb 0bd9
00000050: 0608 2029 09e9 23b1 ff2b c300 17f3 c918
00000060: 0b0a 0206 d0e6 fa36 313a bcff 2a99 dab0
00000070: f47f 0317 30f6 bf2a 179b fa70 473c 244d
00000080: 21ed e99a 031f 10b1 050c d7dc 1a13 e2c9
00000090: 2e09 a508 f533 dde8 0121 ed17 da0c e200
000000a0: c749 0cfa fbfc 030e 26d5 52e7 16d3 b42f
000000b0: 3055 1f42 074b fae2 ac18 e613 124a abce
000000c0: e90f d722 77de 9706 f400 2505 4cf6 b3f9
000000d0: 083f d83a 1110 d4ed 27e8 4424 f46e 193a
000000e0: e668 f40b fb13 44f5 070b 4618 0308 c5fc
000000f0: 03ee d1ce f301 0101 dad9 04d5 15db c747

Conv2D;StatefulPartitionedCall/StatefulPartitionedCall/PartitionedCall_112/PartitionedCall/Conv2D i1 [172, 1, 1, 68]
-10 -74 75 14 60 -57 -29 -14
-35 28 12 -114 -54 36 96 -61
36 -59 -71 35 -11 -32 125 61
30 120 38 108 -11 -30 -58 -42
-105 -21 110 -61 -71 83 -21 -99
-74 37 127 -53 -84 35 -33 35
-28 10 31 108 -86 -65 -66 49
45 -80 52 -21 -37 -126 -34 -29
-60 28 -6 55 -100 -101 -64 -63
34 80 -5 51 -24 -117 -41 62
37 102 -49 -120 49 -121 34 33
115 -45 39 49 -1 -107 35 92
53 47 -50 51 114 -34 -40 2
103 101 36 81 7 -87 -91 -122
20 -41 20 119 -22 126 -52 72
63 -15 125 -32 44 0 97 12
21 15 -127 9 -115 75 73 106
63 7 127 -30 56 -4 40 -38
-27 24 -82 -60 42 -45 37 50
30 3 -42 8 15 54 33 -42
103 45 29 -65 -42 8 48 18
47 -39 -11 -12 67 3 -45 13
-60 61 -33 66 -12 -28 99 24
54 7 -8 -122 -49 -10 -19 73
-41 56 -25 -45 74 -71 62 -92
-52 21 -70 15 2 127 24 -18
-39 89 -32 -63 63 94 -74 100
50 66 50 -11 34 99 41 90
8 38 -55 -64 9 -81 -55 70
14 71 -13 55 56 12 -90 35
4 -92 -51 42 62 30 -28 -26
41 -35 -14 2 -42 -82 80 14
00000000: f6b6 4b0e 3cc7 e3f2 dd1c 0c8e ca24 60c3
00000010: 24c5 b923 f5e0 7d3d 1e78 266c f5e2 c6d6
00000020: 97eb 6ec3 b953 eb9d b625 7fcb ac23 df23
00000030: e40a 1f6c aabf be31 2db0 34eb db82 dee3
00000040: c41c fa37 9c9b c0c1 2250 fb33 e88b d73e
00000050: 2566 cf88 3187 2221 73d3 2731 ff95 235c
00000060: 352f ce33 72de d802 6765 2451 07a9 a586
00000070: 14d7 1477 ea7e cc48 3ff1 7de0 2c00 610c
00000080: 150f 8109 8d4b 496a 3f07 7fe2 38fc 28da
00000090: e518 aec4 2ad3 2532 1e03 d608 0f36 21d6
000000a0: 672d 1dbf d608 3012 2fd9 f5f4 4303 d30d
000000b0: c43d df42 f4e4 6318 3607 f886 cff6 ed49
000000c0: d738 e7d3 4ab9 3ea4 cc15 ba0f 027f 18ee
000000d0: d959 e0c1 3f5e b664 3242 32f5 2263 295a
000000e0: 0826 c9c0 09af c946 0e47 f337 380c a623
000000f0: 04a4 cd2a 3e1e e4e6 29dd f202 d6ae 500e

Conv2D;StatefulPartitionedCall/StatefulPartitionedCall/PartitionedCall_118/PartitionedCall/Conv2D i1 [68, 1, 1, 172]
-4 -10 14 -7 12 -57 -81 -16
-6 8 -3 16 51 -89 -15 12
16 -71 -54 4 -36 50 60 60
43 -22 20 -71 79 -36 -45 -49
71 -48 -13 -39 11 8 12 -31
6 -44 5 45 -3 -2 -2 34
45 -30 -105 4 7 -127 77 -2
-75 -59 -21 -22 -58 71 87 2
68 -94 7 -22 57 13 70 29
-5 -20 -52 -8 8 -47 -7 -28
28 -34 -94 6 79 5 -20 24
-88 11 62 -55 -34 -31 -1 16
-40 -10 31 6 4 34 -22 11
-20 -5 -42 -95 -32 3 -53 10
16 -46 -11 12 -4 18 14 -19
11 -19 30 21 12 -15 -43 39
7 3 4 -5 -21 27 -83 42
-2 -57 7 -4 -31 15 -47 -15
7 -10 -46 2 6 -6 -5 -28
-39 -11 -35 -17 -10 3 -80 -14
4 -2 9 40 -50 -27 -10 -18
-12 -51 -29 29 -5 -10 36 6
-29 -41 -31 -10 -9 -24 18 11
9 -31 26 -11 -16 -49 45 16
-14 -2 37 37 -14 -74 -40 -43
36 -37 -17 60 -23 58 -15 -66
-60 -8 10 12 1 -76 65 -56
1 2 9 -50 29 80 -6 36
-21 -48 56 5 31 -9 -6 -9
12 88 -34 0 47 -23 -68 -2
51 -14 -34 -11 22 16 7 55
-33 -67 41 -8 -68 -17 -29 -8
00000000: fcf6 0ef9 0cc7 aff0 fa08 fd10 33a7 f10c
00000010: 10b9 ca04 dc32 3c3c 2bea 14b9 4fdc d3cf
00000020: 47d0 f3d9 0b08 0ce1 06d4 052d fdfe fe22
00000030: 2de2 9704 0781 4dfe b5c5 ebea c647 5702
00000040: 44a2 07ea 390d 461d fbec ccf8 08d1 f9e4
00000050: 1cde a206 4f05 ec18 a80b 3ec9 dee1 ff10
00000060: d8f6 1f06 0422 ea0b ecfb d6a1 e003 cb0a
00000070: 10d2 f50c fc12 0eed 0bed 1e15 0cf1 d527
00000080: 0703 04fb eb1b ad2a fec7 07fc e10f d1f1
00000090: 07f6 d202 06fa fbe4 d9f5 ddef f603 b0f2
000000a0: 04fe 0928 cee5 f6ee f4cd e31d fbf6 2406
000000b0: e3d7 e1f6 f7e8 120b 09e1 1af5 f0cf 2d10
000000c0: f2fe 2525 f2b6 d8d5 24db ef3c e93a f1be
000000d0: c4f8 0a0c 01b4 41c8 0102 09ce 1d50 fa24
000000e0: ebd0 3805 1ff7 faf7 0c58 de00 2fe9 bcfe
000000f0: 33f2 def5 1610 0737 dfbd 29f8 bcef e3f8

Conv2D;StatefulPartitionedCall/StatefulPartitionedCall/PartitionedCall_123/PartitionedCall/Conv2D i1 [172, 1, 1, 68]
94 62 26 39 45 15 -4 2
6 -31 -29 -59 65 -57 107 8
48 -53 -127 -116 -31 88 1 -65
117 -27 -108 -51 59 -22 -69 6
3 13 -6 -48 -3 48 80 25
6 92 37 29 26 2 60 -58
85 126 23 69 14 -25 -68 -62
-76 7 16 -70 40 -78 4 83
2 1 -26 109 82 66 -46 -44
47 -51 -103 -29 43 -65 -60 -53
31 72 -40 93 -78 36 -63 80
-39 81 -31 -69 72 -65 -70 87
-20 -101 -34 65 -116 -51 71 43
97 -65 43 127 -49 -39 -78 -65
-124 -33 -54 -63 -38 -57 87 29
-34 113 41 -33 -119 -36 24 -58
-60 53 -107 -24 -33 -45 -116 -58
22 -22 -19 -18 -35 30 -68 -61
-45 91 -49 -88 16 -56 20 -38
-39 1 -44 -39 38 28 -73 13
-45 -68 88 -116 -85 -63 9 -28
0 3 -84 -42 5 36 -6 -5
43 86 6 127 23 -51 1 116
-67 -42 -39 15 90 18 24 59
20 -74 23 1 20 -48 34 30
-30 53 -7 -84 -62 -23 -44 36
-27 -114 -24 47 -7 15 -34 40
-55 4 48 5 0 -11 -8 5
69 -77 44 54 1 -29 45 11
19 -45 19 61 13 69 -24 -24
31 126 25 -13 10 -19 50 33
-4 -68 -45 13 -1 -68 -127 88
00000000: 5e3e 1a27 2d0f fc02 06e1 e3c5 41c7 6b08
00000010: 30cb 818c e158 01bf 75e5 94cd 3bea bb06
00000020: 030d fad0 fd30 5019 065c 251d 1a02 3cc6
00000030: 557e 1745 0ee7 bcc2 b407 10ba 28b2 0453
00000040: 0201 e66d 5242 d2d4 2fcd 99e3 2bbf c4cb
00000050: 1f48 d85d b224 c150 d951 e1bb 48bf ba57
00000060: ec9b de41 8ccd 472b 61bf 2b7f cfd9 b2bf
00000070: 84df cac1 dac7 571d de71 29df 89dc 18c6
00000080: c435 95e8 dfd3 8cc6 16ea edee dd1e bcc3
00000090: d35b cfa8 10c8 14da d901 d4d9 261c b70d
000000a0: d3bc 588c abc1 09e4 0003 acd6 0524 fafb
000000b0: 2b56 067f 17cd 0174 bdd6 d90f 5a12 183b
000000c0: 14b6 1701 14d0 221e e235 f9ac c2e9 d424
000000d0: e58e e82f f90f de28 c904 3005 00f5 f805
000000e0: 45b3 2c36 01e3 2d0b 13d3 133d 0d45 e8e8
000000f0: 1f7e 19f3 0aed 3221 fcbc d30d ffbc 8158

Conv2D;StatefulPartitionedCall/StatefulPartitionedCall/PartitionedCall_129/PartitionedCall/Conv2D i1 [48, 1, 1, 172]
4 -41 -21 23 -17 48 -2 25
4 32 -11 -37 -10 2 -16 6
36 14 -8 0 -13 60 18 48
53 7 -8 -34 32 -77 -33 10
36 -6 -49 37 12 73 -24 10
45 28 16 26 -75 62 -27 -25
92 20 86 -46 84 62 23 5
83 3 52 14 -47 37 -127 -107
-62 1 45 54 73 19 -34 -62
-104 73 -60 -9 3 3 49 -76
-13 107 11 1 -5 -14 33 0
60 -30 78 54 33 78 -16 -32
30 36 -15 -37 -5 -6 -20 -1
11 -62 -12 26 17 6 -53 -15
23 -16 -45 42 17 -16 -14 14
-83 -73 114 17 -31 -9 -62 1
-51 -45 14 13 17 48 -18 49
26 -84 -23 17 25 -2 -2 -72
12 33 -10 62 -33 -23 10 36
18 -23 -34 5 37 27 -20 12
30 -10 -29 -33 -28 -36 10 14
-110 15 -10 -19 13 -38 -7 -32
-19 20 -40 -79 -6 4 4 -11
23 23 -74 -2 -3 -10 -4 0
-59 3 -3 9 6 -15 14 2
-1 44 -2 -18 -84 -32 108 41
106 -70 23 -4 1 31 20 -4
68 -36 11 -33 -42 -66 -12 3
-10 18 44 -8 -19 -36 -65 47
102 6 56 127 -10 -74 23 -8
29 11 -54 -16 -19 48 -36 97
-5 98 109 41 3 -98 35 -13
00000000: 04d7 eb17 ef30 fe19 0420 f5db f602 f006
00000010: 240e f800 f33c 1230 3507 f8de 20b3 df0a
00000020: 24fa cf25 0c49 e80a 2d1c 101a b53e e5e7
00000030: 5c14 56d2 543e 1705 5303 340e d125 8195
00000040: c201 2d36 4913 dec2 9849 c4f7 0303 31b4
00000050: f36b 0b01 fbf2 2100 3ce2 4e36 214e f0e0
00000060: 1e24 f1db fbfa ecff 0bc2 f41a 1106 cbf1
00000070: 17f0 d32a 11f0 f20e adb7 7211 e1f7 c201
00000080: cdd3 0e0d 1130 ee31 1aac e911 19fe feb8
00000090: 0c21 f63e dfe9 0a24 12e9 de05 251b ec0c
000000a0: 1ef6 e3df e4dc 0a0e 920f f6ed 0dda f9e0
000000b0: ed14 d8b1 fa04 04f5 1717 b6fe fdf6 fc00
000000c0: c503 fd09 06f1 0e02 ff2c feee ace0 6c29
000000d0: 6aba 17fc 011f 14fc 44dc 0bdf d6be f403
000000e0: f612 2cf8 eddc bf2f 6606 387f f6b6 17f8
000000f0: 1d0b caf0 ed30 dc61 fb62 6d29 039e 23f3

Conv2D;StatefulPartitionedCall/StatefulPartitionedCall/PartitionedCall_134/PartitionedCall/Conv2D i1 [288, 1, 1, 68]
32 -46 11 -54 -57 -85 46 24
41 -19 -14 56 72 49 0 -20
-14 -62 -33 -17 34 -85 -14 15
53 30 -36 82 116 90 39 127
-71 -16 46 -2 9 43 24 17
28 -11 -81 -34 79 26 -13 8
100 23 -41 -1 -64 104 -65 -91
-42 84 33 -105 -58 -53 -78 -79
-22 -95 -88 109 -16 36 82 -82
-2 -18 -70 78 -87 -73 71 -4
-108 95 -6 32 -1 -34 85 -29
7 -54 0 46 -28 1 21 -17
14 -100 -20 4 46 127 -18 62
-43 -5 -27 -2 -91 -30 76 -25
-5 -16 -89 -72 88 -62 -11 51
-7 24 -19 -49 -3 77 -84 73
-28 -20 38 -53 -6 30 1 -51
-21 -17 -62 81 -65 52 3 -64
-16 16 44 -40 47 -124 -68 -92
7 -110 -105 -22 -56 101 -15 -71
127 -15 -55 -16 -2 13 75 38
40 56 63 51 1 22 57 -31
13 106 -78 -29 79 -54 -24 -14
100 43 115 -29 -66 -30 35 -30
-13 -105 67 -47 37 97 3 118
15 -70 -90 71 63 8 -97 53
-36 -15 -83 -44 -24 19 41 109
6 87 11 -50 -52 -12 -32 127
24 50 16 31 16 81 -54 -11
-54 -118 79 33 18 104 25 67
43 12 -94 -45 90 13 -21 -78
-35 -26 -3 -34 -20 -69 74 16
00000000: 20d2 0bca c7ab 2e18 29ed f238 4831 00ec
00000010: f2c2 dfef 22ab f20f 351e dc52 745a 277f
00000020: b9f0 2efe 092b 1811 1cf5 afde 4f1a f308
00000030: 6417 d7ff c068 bfa5 d654 2197 c6cb b2b1
00000040: eaa1 a86d f024 52ae feee ba4e a9b7 47fc
00000050: 945f fa20 ffde 55e3 07ca 002e e401 15ef
00000060: 0e9c ec04 2e7f ee3e d5fb e5fe a5e2 4ce7
00000070: fbf0 a7b8 58c2 f533 f918 edcf fd4d ac49
00000080: e4ec 26cb fa1e 01cd ebef c251 bf34 03c0
00000090: f010 2cd8 2f84 bca4 0792 97ea c865 f1b9
000000a0: 7ff1 c9f0 fe0d 4b26 2838 3f33 0116 39e1
000000b0: 0d6a b2e3 4fca e8f2 642b 73e3 bee2 23e2
000000c0: f397 43d1 2561 0376 0fba a647 3f08 9f35
000000d0: dcf1 add4 e813 296d 0657 0bce ccf4 e07f
000000e0: 1832 101f 1051 caf5 ca8a 4f21 1268 1943
000000f0: 2b0c a2d3 5a0d ebb2 dde6 fdde ecbb 4a10

Conv2D;StatefulPartitionedCall/StatefulPartitionedCall/PartitionedCall_140/PartitionedCall/Conv2D i1 [16, 1, 1, 288]
0 -25 69 -42 -18 2 -53 11
42 -18 -4 -22 43 15 -15 11
-18 56 -41 13 -17 -8 18 22
30 78 13 5 3 42 28 -95
13 27 37 -62 19 76 -45 -6
-7 -46 24 127 17 0 63 16
41 1 0 8 7 -11 9 -6
17 -44 -33 8 13 59 -66 -62
0 -71 4 122 2 -21 62 82
-5 -8 12 -3 -34 3 -26 -1
13 28 3 -14 -79 -94 1 -93
-59 -61 39 -39 82 18 15 -2
14 23 -6 21 -13 54 54 13
8 44 -18 -4 58 -3 60 -11
38 31 -21 -12 -5 19 -21 39
-19 -9 4 -71 -9 -69 16 41
30 125 49 -9 15 10 71 -23
8 -21 21 11 -50 -2 -28 -97
18 -78 -46 0 -41 -81 -12 40
0 -3 -18 70 -35 -2 14 7
21 14 21 34 33 5 42 10
21 -27 -27 -19 -60 -50 7 10
57 67 -72 91 20 21 -39 82
6 -1 4 -1 -2 -1 22 66
15 30 2 7 19 -33 89 -26
2 -19 6 123 28 26 94 44
-8 32 -70 14 -27 -8 -14 -42
62 12 1 -9 23 12 3 1
-3 26 -2 0 -32 -8 -32 19
2 -3 -6 -3 1 -15 -53 8
39 1 -1 9 59 -11 -23 94
9 39 37 -25 41 -25 -17 13
00000000: 00e7 45d6 ee02 cb0b 2aee fcea 2b0f f10b
00000010: ee38 d70d eff8 1216 1e4e 0d05 032a 1ca1
00000020: 0d1b 25c2 134c d3fa f9d2 187f 1100 3f10
00000030: 2901 0008 07f5 09fa 11d4 df08 0d3b bec2
00000040: 00b9 047a 02eb 3e52 fbf8 0cfd de03 e6ff
00000050: 0d1c 03f2 b1a2 01a3 c5c3 27d9 5212 0ffe
00000060: 0e17 fa15 f336 360d 082c eefc 3afd 3cf5
00000070: 261f ebf4 fb13 eb27 edf7 04b9 f7bb 1029
00000080: 1e7d 31f7 0f0a 47e9 08eb 150b cefe e49f
00000090: 12b2 d200 d7af f428 00fd ee46 ddfe 0e07
000000a0: 150e 1522 2105 2a0a 15e5 e5ed c4ce 070a
000000b0: 3943 b85b 1415 d952 06ff 04ff feff 1642
000000c0: 0f1e 0207 13df 59e6 02ed 067b 1c1a 5e2c
000000d0: f820 ba0e e5f8 f2d6 3e0c 01f7 170c 0301
000000e0: fd1a fe00 e0f8 e013 02fd fafd 01f1 cb08
000000f0: 2701 ff09 3bf5 e95e 0927 25e7 29e7 ef0d

Conv2D;StatefulPartitionedCall/StatefulPartitionedCall/PartitionedCall_142/PartitionedCall/Conv2D i1 [96, 1, 1, 16]
19 11 50 -87 27 38 -36 -107
18 -127 -50 53 -7 29 -17 -62
18 74 64 -117 -54 -94 -10 -33
113 127 12 -41 32 87 55 119
102 -21 -84 -61 -72 78 16 -127
-116 -83 64 37 60 -118 19 47
23 58 19 -64 53 52 -83 -127
49 -99 -81 104 52 40 -16 -60
-62 -33 -13 57 -11 -127 9 88
-30 -31 53 -74 66 -29 -47 -2
127 71 21 -38 3 28 -51 -59
45 2 -29 41 -47 47 105 45
20 33 3 38 60 30 35 127
6 22 -30 -77 -10 -33 51 -55
88 68 -52 34 93 117 86 58
-44 -120 -127 -53 -106 -42 116 -55
44 68 -59 -40 87 127 64 -57
80 -115 -83 80 67 61 38 -44
1 -11 -14 -26 -14 13 -49 42
-20 -50 -28 -22 -61 -6 92 127
-77 98 127 -60 41 -71 -56 -52
86 -111 -93 -43 100 100 82 -36
-56 41 127 63 -91 -105 -66 119
121 114 -83 -47 -82 105 61 64
68 -60 -34 -62 -10 81 -127 -74
-29 -115 -20 -4 -45 -69 98 -117
-127 -53 85 103 19 -68 -95 31
58 48 76 -79 122 66 -70 -78
127 113 71 -40 111 -107 65 -118
63 -110 -79 -126 89 86 114 84
-7 -55 37 1 12 46 -83 23
-48 -72 -66 27 -13 -72 127 -74
00000000: 130b 32a9 1b26 dc95 1281 ce35 f91d efc2
00000010: 124a 408b caa2 f6df 717f 0cd7 2057 3777
00000020: 66eb acc3 b84e 1081 8cad 4025 3c8a 132f
00000030: 173a 13c0 3534 ad81 319d af68 3428 f0c4
00000040: c2df f339 f581 0958 e2e1 35b6 42e3 d1fe
00000050: 7f47 15da 031c cdc5 2d02 e329 d12f 692d
00000060: 1421 0326 3c1e 237f 0616 e2b3 f6df 33c9
00000070: 5844 cc22 5d75 563a d488 81cb 96d6 74c9
00000080: 2c44 c5d8 577f 40c7 508d ad50 433d 26d4
00000090: 01f5 f2e6 f20d cf2a ecce e4ea c3fa 5c7f
000000a0: b362 7fc4 29b9 c8cc 5691 a3d5 6464 52dc
000000b0: c829 7f3f a597 be77 7972 add1 ae69 3d40
000000c0: 44c4 dec2 f651 81b6 e38d ecfc d3bb 628b
000000d0: 81cb 5567 13bc a11f 3a30 4cb1 7a42 bab2
000000e0: 7f71 47d8 6f95 418a 3f92 b182 5956 7254
000000f0: f9c9 2501 0c2e ad17 d0b8 be1b f3b8 7fb6

Conv2D;StatefulPartitionedCall/StatefulPartitionedCall/PartitionedCall_148/PartitionedCall/Conv2D i1 [16, 1, 1, 96]
11 59 11 -2 17 6 36 -41
12 30 -7 27 -51 7 29 44
-45 -76 57 41 16 52 15 -17
-15 -2 86 27 27 6 -59 -2
56 8 5 3 50 -127 8 -45
-12 -36 -63 -2 -4 -28 11 47
-6 -52 84 -9 3 21 9 33
26 -4 4 -47 -91 -9 19 -7
-19 25 40 5 11 -18 5 0
-22 -42 -39 -37 16 12 -11 -2
43 70 6 -3 -16 4 -26 19
2 33 -64 61 19 -19 -40 -5
-6 -101 3 54 92 2 -72 -16
21 -23 -12 -58 82 -2 -59 -48
65 42 -39 -15 123 -68 28 -27
40 5 55 -18 -8 -50 79 116
27 65 -127 71 37 67 -57 54
7 57 112 94 -56 -30 15 17
-9 -41 -54 -33 -109 -56 4 -89
66 42 -19 61 1 31 77 58
16 -25 -15 23 0 -45 -25 102
0 18 -5 35 -22 -47 42 -50
-13 -45 -35 -18 -8 2 51 75
20 83 -2 42 30 48 29 52
6 -32 22 5 -4 23 -29 -2
-6 3 -29 -44 68 38 -37 -120
6 50 -92 -11 43 -65 -17 78
-19 21 11 -93 -23 7 -16 11
-15 35 -100 -21 -63 25 -28 -5
-30 32 -10 15 -26 6 9 76
-9 10 -106 37 -49 -25 -3 -33
-52 7 -19 17 83 47 34 -34
00000000: 0b3b 0bfe 1106 24d7 0c1e f91b cd07 1d2c
00000010: d3b4 3929 1034 0fef f1fe 561b 1b06 c5fe
00000020: 3808 0503 3281 08d3 f4dc c1fe fce4 0b2f
00000030: facc 54f7 0315 0921 1afc 04d1 a5f7 13f9
00000040: ed19 2805 0bee 0500 ead6 d9db 100c f5fe
00000050: 2b46 06fd f004 e613 0221 c03d 13ed d8fb
00000060: fa9b 0336 5c02 b8f0 15e9 f4c6 52fe c5d0
00000070: 412a d9f1 7bbc 1ce5 2805 37ee f8ce 4f74
00000080: 1b41 8147 2543 c736 0739 705e c8e2 0f11
00000090: f7d7 cadf 93c8 04a7 422a ed3d 011f 4d3a
000000a0: 10e7 f117 00d3 e766 0012 fb23 ead1 2ace
000000b0: f3d3 ddee f802 334b 1453 fe2a 1e30 1d34
000000c0: 06e0 1605 fc17 e3fe fa03 e3d4 4426 db88
000000d0: 0632 a4f5 2bbf ef4e ed15 0ba3 e907 f00b
000000e0: f123 9ceb c119 e4fb e220 f60f e606 094c
000000f0: f70a 9625 cfe7 fddf cc07 ed11 532f 22de

Conv2D;StatefulPartitionedCall/StatefulPartitionedCall/PartitionedCall_153/PartitionedCall/Conv2D i1 [96, 1, 1, 16]
52 121 110 20 124 -100 -40 91
127 -19 -38 66 102 126 -19 -92
38 -76 -34 127 82 -25 -60 119
-87 -32 -31 -73 -51 -30 -1 -67
16 43 28 -1 -80 56 -76 37
12 -55 -82 31 -97 100 -7 127
82 -114 -107 -55 23 -127 66 -103
22 -9 -20 -74 84 -54 58 -29
88 57 84 -127 -82 26 -97 -78
7 -61 -75 -33 46 63 111 27
-93 -37 -57 127 -119 45 -33 79
31 -12 9 75 -39 3 45 17
-27 3 29 -70 8 -22 23 -44
-80 -10 85 -127 68 -50 103 -34
-50 52 73 -122 93 -75 -50 -16
46 86 -96 43 -42 60 127 68
127 48 30 60 15 -119 -60 86
-76 56 -98 -106 -85 49 110 44
13 -79 -33 26 -66 127 83 41
-116 -85 75 -71 -85 -91 96 76
99 -27 74 -100 82 -103 -87 71
66 54 -41 -115 127 37 16 -114
29 32 -38 47 127 -5 46 80
-5 5 -5 -47 4 -21 -58 -30
-24 -35 -11 6 -36 95 25 -36
-63 -127 -20 -39 -63 -42 11 -64
-109 112 -106 -64 84 -89 109 -58
51 34 35 69 75 41 -127 37
22 1 -13 9 64 37 -28 103
-50 -44 -41 -99 -127 -22 22 -73
-80 36 47 -97 -77 113 47 -127
-78 90 45 30 -47 62 31 87
00000000: 3479 6e14 7c9c d85b 7fed da42 667e eda4
00000010: 26b4 de7f 52e7 c477 a9e0 e1b7 cde2 ffbd
00000020: 102b 1cff b038 b425 0cc9 ae1f 9f64 f97f
00000030: 528e 95c9 1781 4299 16f7 ecb6 54ca 3ae3
00000040: 5839 5481 ae1a 9fb2 07c3 b5df 2e3f 6f1b
00000050: a3db c77f 892d df4f 1ff4 094b d903 2d11
00000060: e503 1dba 08ea 17d4 b0f6 5581 44ce 67de
00000070: ce34 4986 5db5 cef0 2e56 a02b d63c 7f44
00000080: 7f30 1e3c 0f89 c456 b438 9e96 ab31 6e2c
00000090: 0db1 df1a be7f 5329 8cab 4bb9 aba5 604c
000000a0: 63e5 4a9c 5299 a947 4236 d78d 7f25 108e
000000b0: 1d20 da2f 7ffb 2e50 fb05 fbd1 04eb c6e2
000000c0: e8dd f506 dc5f 19dc c181 ecd9 c1d6 0bc0
000000d0: 9370 96c0 54a7 6dc6 3322 2345 4b29 8125
000000e0: 1601 f309 4025 e467 ced4 d79d 81ea 16b7
000000f0: b024 2f9f b371 2f81 b25a 2d1e d13e 1f57

Conv2D;StatefulPartitionedCall/StatefulPartitionedCall/PartitionedCall_159/PartitionedCall/Conv2D i1 [32, 1, 1, 96]
-50 -7 73 -39 -5 -13 -84 -24
-63 -79 -40 -71 -38 -30 -127 12
78 -81 -73 -49 63 -24 -82 98
-106 93 54 -89 33 -17 49 -118
56 32 34 -47 -30 7 51 35
-61 -75 -52 10 22 -32 -32 31
79 35 -108 51 -106 9 -44 37
49 84 25 49 -34 52 9 28
6 -15 -3 -47 5 46 -18 -63
62 -41 42 -13 -101 -124 -64 -22
64 79 -20 -33 111 93 -86 -62
-3 -5 18 29 -47 105 33 80
-71 66 -10 -40 -10 16 -8 6
-6 66 -19 -37 80 75 24 0
-54 -44 109 -79 -28 26 24 -25
25 64 -19 -51 51 28 -12 87
9 -4 9 -40 -81 -52 -33 7
-4 45 31 -60 11 -7 -27 87
-93 -33 -28 -71 -14 107 -48 -2
5 -19 -21 -16 -19 30 37 12
17 53 -23 -37 -8 -41 16 76
-127 -72 22 29 50 38 47 -48
2 -39 92 4 81 -17 94 3
85 -9 69 17 56 41 -43 -59
3 20 49 6 -72 -16 35 38
17 -15 -52 -90 -38 -69 -60 39
7 3 -25 20 0 51 -43 10
-3 -41 -40 91 33 -19 92 -31
-40 41 27 -12 -109 -2 -47 -9
-41 -58 24 -57 -1 -28 48 6
31 57 -21 -42 -70 -1 -36 -23
60 -26 -11 32 12 -127 12 115
00000000: cef9 49d9 fbf3 ace8 c1b1 d8b9 dae2 810c
00000010: 4eaf b7cf 3fe8 ae62 965d 36a7 21ef 318a
00000020: 3820 22d1 e207 3323 c3b5 cc0a 16e0 e01f
00000030: 4f23 9433 9609 d425 3154 1931 de34 091c
00000040: 06f1 fdd1 052e eec1 3ed7 2af3 9b84 c0ea
00000050: 404f ecdf 6f5d aac2 fdfb 121d d169 2150
00000060: b942 f6d8 f610 f806 fa42 eddb 504b 1800
00000070: cad4 6db1 e41a 18e7 1940 edcd 331c f457
00000080: 09fc 09d8 afcc df07 fc2d 1fc4 0bf9 e557
00000090: a3df e4b9 f26b d0fe 05ed ebf0 ed1e 250c
000000a0: 1135 e9db f8d7 104c 81b8 161d 3226 2fd0
000000b0: 02d9 5c04 51ef 5e03 55f7 4511 3829 d5c5
000000c0: 0314 3106 b8f0 2326 11f1 cca6 dabb c427
000000d0: 0703 e714 0033 d50a fdd7 d85b 21ed 5ce1
000000e0: d829 1bf4 93fe d1f7 d7c6 18c7 ffe4 3006
000000f0: 1f39 ebd6 baff dce9 3ce6 f520 0c81 0c73

Conv2D;StatefulPartitionedCall/StatefulPartitionedCall/PartitionedCall_164/PartitionedCall/Conv2D i1 [96, 1, 1, 32]
-68 89 104 42 17 19 -7 45
38 -81 -92 62 -64 127 93 63
45 -22 -6 -43 -67 4 -40 35
39 -57 -50 -2 -44 -39 16 13
62 115 19 18 103 -88 -25 -21
59 32 -127 12 -28 124 31 38
44 22 -22 -3 -18 36 52 -20
-25 21 -36 41 -15 -34 48 -14
18 60 15 0 127 -52 20 -13
-14 -71 19 -67 4 45 -23 -26
40 0 36 -36 -66 7 -10 12
-16 -24 -25 -26 -26 7 50 -60
11 -66 -15 52 -19 127 24 25
-44 -69 36 57 -72 -67 -62 20
18 45 41 10 15 -13 -3 -41
36 -46 -24 -8 -7 45 18 -10
-46 -76 -22 127 -13 100 37 23
-22 -93 34 -71 -44 -71 -88 71
-32 -7 -18 42 35 -36 -11 -43
45 -45 26 24 56 -26 -14 21
-82 78 -127 95 35 -96 -62 -69
-64 -31 -88 64 -114 79 58 56
19 -33 -36 -18 -63 67 69 -32
-54 -31 -30 62 25 -48 49 32
35 54 -23 127 56 -19 6 -52
46 35 -18 5 10 6 32 -59
15 -36 -35 8 29 70 47 -24
-93 35 -7 1 -12 46 -5 43
79 -51 -51 72 31 -74 -72 -42
70 21 -127 19 -124 124 49 -41
44 8 -28 32 -25 103 54 -28
-82 23 -64 33 -22 -23 25 -32
00000000: bc59 682a 1113 f92d 26af a43e c07f 5d3f
00000010: 2dea fad5 bd04 d823 27c7 cefe d4d9 100d
00000020: 3e73 1312 67a8 e7eb 3b20 810c e47c 1f26
00000030: 2c16 eafd ee24 34ec e715 dc29 f1de 30f2
00000040: 123c 0f00 7fcc 14f3 f2b9 13bd 042d e9e6
00000050: 2800 24dc be07 f60c f0e8 e7e6 e607 32c4
00000060: 0bbe f134 ed7f 1819 d4bb 2439 b8bd c214
00000070: 122d 290a 0ff3 fdd7 24d2 e8f8 f92d 12f6
00000080: d2b4 ea7f f364 2517 eaa3 22b9 d4b9 a847
00000090: e0f9 ee2a 23dc f5d5 2dd3 1a18 38e6 f215
000000a0: ae4e 815f 23a0 c2bb c0e1 a840 8e4f 3a38
000000b0: 13df dcee c143 45e0 cae1 e23e 19d0 3120
000000c0: 2336 e97f 38ed 06cc 2e23 ee05 0a06 20c5
000000d0: 0fdc dd08 1d46 2fe8 a323 f901 f42e fb2b
000000e0: 4fcd cd48 1fb6 b8d6 4615 8113 847c 31d7
000000f0: 2c08 e420 e767 36e4 ae17 c021 eae9 19e0
